==========================================================================================
Layer (type:depth-idx)                   Output Shape              Param #
==========================================================================================
Net                                      --                        --
├─Conv2d: 1-1                            [64, 32, 26, 26]          320
├─Linear: 1-4                            [64, 128]                 1,179,776
├─Dropout: 1-5                           [64, 128]                 --
├─Linear: 1-6                            [64, 10]                  1,290
==========================================================================================
Total params: 1,199,882
Trainable params: 1,199,882
Non-trainable params: 0
Total mult-adds (M): 771.27
==========================================================================================
Input size (MB): 0.20
Forward/backward pass size (MB): 30.02
Params size (MB): 4.80
Estimated Total Size (MB): 35.02
==========================================================================================
==========================================================================================
Layer (type:depth-idx)                   Output Shape              Param #
==========================================================================================
Net                                      --                        --
├─Conv2d: 1-1                            [64, 32, 26, 26]          320
├─Linear: 1-4                            [64, 128]                 1,179,776
├─Dropout: 1-5                           [64, 128]                 --
├─Linear: 1-6                            [64, 10]                  1,290
==========================================================================================
Total params: 1,199,882
Trainable params: 1,199,882
Non-trainable params: 0
Total mult-adds (M): 771.27
==========================================================================================
Input size (MB): 0.20
Forward/backward pass size (MB): 30.02
Params size (MB): 4.80
Estimated Total Size (MB): 35.02
…
